…
, 3]\\n  (0,0): 7 -> 3\\n  (0,1): 7 -> 3\\n  (1,0): 7 -> 3\\n  (1,2): 2 -> 0\\n  (2,0): 7 -> 3\\n\\nExample 3:\\nInput:\\n0 7 0\\n10 7 10\\n0 7 10\\nOutput:\\n3 3 0\\n0 0 0\\n0 0 0\\nAnalysis:\\n  Input colors: [0, 7, 10]\\n  Output colors: [0, 3]\\n  (0,0): 0 -> 3\\n  (0,1): 7 -> 3\\n  (1,0): 10 -> 0\\n  (1,1): 7 -> 0\\n  (1,2): 10 -> 0\\n  (2,1): 7 -> 0\\n  (2,2): 10 -> 0\\n\\n==================================================\\nLooking for patterns:\\n\\nObservations:\\n1. All examples are 3x3 grids\\n2. Looking at transformations...\\n\\nColumn analysis:\\n\\nExample 1 columns:\\n  Col 0: [0, 0, 7] -> [0, 0, 3]\\n  Col 1: [0, 0, 7] -> [0, 8, 3]\\n  Col 2: [7, 7, 7] -> [0, 0, 0]\\n\\nExample 2 columns:\\n  Col 0: [7, 7, 7] -> [3, 3, 3]\\n  Col 1: [7, 0, 0] -> [3, 0, 0]\\n  Col 2: [0, 2, 0] -> [0, 0, 0]\\n\\nExample 3 columns:\\n  Col 0: [0, 10, 0] -> [3, 0, 0]\\n  Col 1: [7, 7, 7] -> [3, 0, 0]\\n  Col 2: [0, 10, 10] -> [0, 0, 0]\\n\\nRule hypothesis testing:\\nTesting refined rule:\\n\\nExample 1 test:\\nPredicted: [[0, 0, 0], [0, 0, 0], [3, 3, 0]]\\nActual:    [[0, 0, 0], [0, 8, 0], [3, 3, 0]]\\nMatch: False\\n\\nExample 2 test:\\nPredicted: [[3, 3, 0], [3, 0, 0], [3, 0, 0]]\\nActual:    [[3, 3, 0], [3, 0, 0], [3, 0, 0]]\\nMatch: True\\n\\nExample 3 test:\\nPredicted: [[0, 3, 0], [0, 3, 0], [0, 3, 0]]\\nActua
…
_grid[row][col] = 8\n            \n            # The pattern might be more complex, but this is a starting hypothesis\n    \n    return output_grid\n\nrefined_result = apply_refined_rule(test_grid)\nprint_grid(refined_result, \"Refined Transformation Result\")\n```\n```\nBetaTextEditorCodeExecutionCreateResultBlock(is_file_update=False, type='text_editor_code_execution_create_result')\n```\n```\ncd /tmp && python manual_grid_extract.py\n```\n```\nBetaBashCodeExecutionResultBlock(content=[], return_code=0, stderr='', stdout='Test image dimensions: 782 x 722\\nEstimated cell size: 60\\nPosition (0, 0) -> RGB(0, 0, 0) -> Color 0\\nPosition (0, 1) -> RGB(0, 0, 0) -> Color 0\\nPosition (0, 2) -> RGB(0, 0, 0) -> Color 0\\nPosition (1, 0) -> RGB(0, 0, 0) -> Color 0\\nPosition (1, 1) -> RGB(0, 0, 0) -> Color 0\\nPosition (1, 2) -> RGB(0, 0, 0) -> Color 0\\nPosition (2, 0) -> RGB(0, 0, 0) -> Color 0\\nPosition (2, 1) -> RGB(0, 0, 0) -> Color 0\\nPosition (2, 2) -> RGB(249, 22, 179) -> Color 0\\n\\nTest Grid:\\n0 0 0 0 0 0 0 0 0 0 0 0\\n0 0 0 0 0 0 0 0 0 0 0 0\\n0 0 0 0 0 0 0 0 0 0 0 0\\n0 0 0 0 0 0 0 0 0 0 0 0\\n0 0 0 0 0 0 0 0 0 0 0 0\\n0 0 0 0 0 0 0 0 0 0 0 0\\n0 0 0 0 0 0 0 0 0 0 0 0\\n0 0 0 0 0 0 0 0 0 0 0 0\\n0 0 0 0 0 0 0 0 0 0 0 0\\n0 0 0 0 0 0 0 0 0 0 0 0\\n0 0 0 0 0 0 0 0 0 0 0 0\\n0 0 0 0 0 0 0 0 0 0 0 0\\n\\nAnalyzing the transformation pattern...\\n\\nTransformed 
…
))\\n(500, 500): RGB(np.uint8(0), np.uint8(197), np.uint8(67))\\n\\nAnalyzing test image structure...\\nUnique colors in test image:\\n  RGB(np.uint8(0), np.uint8(0), np.uint8(0)) - black - count: 449049\\n  RGB(np.uint8(0), np.uint8(197), np.uint8(67)) - unknown - count: 73101\\n  RGB(np.uint8(204), np.uint8(204), np.uint8(204)) - unknown - count: 18564\\n  RGB(np.uint8(249), np.uint8(22), np.uint8(179)) - unknown - count: 20886\\n  RGB(np.uint8(255), np.uint8(255), np.uint8(255)) - white - count: 3004\\nGrid extraction parameters:\\n  Start: (39, 36)\\n  Cell size: 58 x 54\\nCell (0, 0): RGB(0, 0, 0) -> 0\\nCell (0, 1): RGB(0, 0, 0) -> 0\\nCell (0, 2): RGB(0, 0, 0) -> 0\\nCell (0, 3): RGB(0, 0, 0) -> 0\\nCell (0, 4): RGB(0, 0, 0) -> 0\\nCell (1, 0): RGB(0, 0, 0) -> 0\\nCell (1, 1): RGB(0, 0, 0) -> 0\\nCell (1, 2): RGB(0, 0, 0) -> 0\\nCell (1, 3): RGB(0, 0, 0) -> 0\\nCell (1, 4): RGB(0, 0, 0) -> 0\\n\\nTest Grid:\\n0 0 0 0 0 0 0 0 0 0 0 0\\n0 0 0 0 0 0 0 0 0 0 0 0\\n0 0 0 0 0 0 0 0 0 0 0 0\\n0 0 0 0 0 0 0 0 0 0 0 0\\n0 0 0 0 0 0 0 0 0 0 0 0\\n0 0 0 0 0 0 0 0 0 0 0 0\\n0 0 0 0 0 0 0 0 0 0 0 0\\n0 0 0 0 0 0 0 0 0 0 0 0\\n0 0 0 0 0 0 0 0 0 0 0 0\\n0 0 0 0 0 0 0 0 0 0 0 0\\n0 0 0 0 0 0 0 0 0 0 0 0\\n0 0 0 0 0 0 0 0 0 0 0 0\\n', type='bash_code_execution_result')\n```\n```\nimport numpy as np\nfrom PIL import Image\nimport os\n\ndef extract_actual_test_grid():\n    \"\"\"Extract the actual test grid with proper color detection\"\"\"\n    test_file = os.environ.get('INPUT_DIR', '.') + '/test_3.png'\n    img = Image.open(test_file)\n    img_array = np.array(img)\n    \n    height, width = img_array.shape[:2]\n    print(f\"Image size: {width} x {height}\")\n    \n    # From the color analysis, I know there are these colors:\n    # RGB(0, 0, 0) - black\n    # RGB(0, 197, 67) - green \n    # RGB(204, 204, 204) - gray/white\n    # RGB(249, 22, 179) - magenta\n    # RGB(255, 255, 255) - white\n    \n    # Let me sample more densely to find the non-black areas\n    print(\"\\nScanning for colored regions...\")\n    \n    colored_positions = []\n    for y in range(0, height, 10):\n        for x in range(0, width, 10):\n            pixel = img_array[y, x]\n            r, g, b = pixel[:3]\n            if not (r < 50 and g < 50 and b < 50):  # Not black\n                colored_posit
…
yze the test image\nprint(f\"\\n\\nTest image analysis:\")\ntest_grid = sample_grid_colors(test_img, (10, 10))\nprint(\"Test grid sample (10x10):\")\nfor i, row in enumerate(test_grid[:5]):\n    print(f\"Row {i}: {row}\")\n```\n```\nBetaTextEditorCodeExecutionCreateResultBlock(is_file_update=False, type='text_editor_code_execution_create_result')\n```\n```\ncd /tmp && python extract_grids.py\n```\n```\nBetaBashCodeExecutionResultBlock(content=[], return_code=0, stderr='', stdout='Training image shape: (585, 1024, 3)\\nTest image shape: (602, 602, 3)\\n\\nAnalyzing specific colors found:\\nRed (255, 57, 55) -> 2\\nYellow (255, 215, 49) -> 4\\nGray (204, 204, 204) -> 5\\nBlack (0, 0, 0) -> 0\\nWhite (255, 255, 255) -> -1\\n\\nAnalyzing training image structure...\\n\\nTrying to identify the grid structure manually...\\nLeft half shape: (585, 512, 3)\\nRight half shape: (585, 512, 3)\\nGrid sections: (292, 512, 3), (293, 512, 3), (292, 512, 3), (293, 512, 3)\\n\\nSampling grid sections...\\n\\nleft_top:\\n  Grid size (5, 12): 46/60 valid cells\\n    Row 0: [0, 0, 2, 0, 0, 0, 0, 0, 0, 0, 0, 0]\\n    Row 1: [0, 
…
    f.write(f\"Row {i:2d}: {row}\\n\")\n\nprint(\"Visual inspection complete. Data saved to /tmp/visual_inspection_grids.txt\")\n```\n```\nBetaTextEditorCodeExecutionCreateResultBlock(is_file_update=False, type='text_editor_code_execution_create_result')\n```\n```\ncd /tmp && python visual_inspection.py\n```\n```\nBetaBashCodeExecutionResultBlock(content=[], return_code=0, stderr='', stdout='Let me examine the images more systematically...\\nTraining image shape: (585, 1024, 3)\\nTest image shape: (602, 602, 3)\\n\\nSampling specific locations in training image:\\n  Top-left corner (0, 0): RGB(243, 243, 243) -> Color 0\\n  Quarter point (256, 146): RGB(0, 0, 0) -> Color 0\\n  Top center (512, 146): RGB(255, 255, 255) -> Color 0\\n  Three-quarter top (768, 146): RGB(0, 0, 0) -> Color 0\\n  Left center (256, 292): RGB(0, 0, 0) -> Color 0\\n  Center (512, 292): RGB(255, 255, 255) -> Color 0\\n  Right center (768, 292): RGB(255, 255, 255) -> Color 0\\n  Three-quarter left (256, 438): RGB(0, 0, 0) -> Color 0\\n  Bottom center (512, 438): RGB(255, 255, 255) -> Color 0\\n  Three-quarter right (768, 438): RGB(255, 255, 255) -> Color 0\\n\\nSystematic sampling of training image (20x20 grid):\\nRow  0: [0, 0, 0, 0, 0, 0, 0, 0, 0, 0, 0, 0, 0, 0, 0, 0, 0, 0, 0, 0]\\nRow  1: [0, 0, 2, 0, 0, 0, 0, 0, 0, 0, 0, 0, 2, 0, 0, 0, 0, 0, 0, 0]\\nRow  2: [0, 0, 2, 0, 0, 0, 0, 0, 0, 0, 0, 0, 2, 0, 0, 0, 0, 0, 0, 0]\\nRow  3: [0, 4, 2, 0, 0, 0, 0, 0, 0, 0, 0, 0, 2, 0, 0, 0, 0, 0, 0, 0]\\nRow  4: [0, 0, 2, 0, 0, 0, 0, 0, 0, 0, 0, 0, 2,
…
