…
                grid_row.append(0)
                
        result_grid.append(grid_row)
    
    return result_grid

result_grid = apply_transformation_to_test()

print(""\nResulting grid:"")
for row in result_grid:
    print(' '.join(str(x) for x in row))
```
```
BetaTextEditorCodeExecutionCreateResultBlock(is_file_update=False, type='text_editor_code_execution_create_result')
```
```
cd /tmp && python grid_transformation.py
```
```
BetaBashCodeExecutionResultBlock(content=[], return_code=0, stderr='', stdout='Analyzing training examples...\nBased on color analysis:\nTraining image has these main colors:\n- Green: (0, 197, 67) - index 3\n- Blue: (0, 105, 207) - index 1\n- Yellow: (255, 215, 49) - index 4\n- Magenta/Pink: (249, 22, 179) - index 6\n\nFrom visual inspection of the training examples:\nExample 1 (top):\n- Input: Green (3) and Magenta (6)\n- Output: Only Magenta (6) remains, Green (3) becomes black\nExample 2 (bottom):\n- Input: Yellow (4) and Blue (1)\n- Output: Only Blue (1) remains, Yellow (4) becomes black\n\nRule hypothesis: Keep the color with LOWER numerical index\n- Green=3, Magenta=6 -> should keep Green, but Magenta is kept\n- Yellow=4, Blue=1 -> should keep Blue, and Blue IS kept\n\nAlternative rule: Keep the color with HIGHER numerical index\n- Green=3, Magenta=6 -> should keep Magenta, and Magenta IS kept ✓\n- Yellow=4, Blue=1 -> should keep Yellow, but Blue is kept\n\nLet me re-examine the colors...\n\nPossible rule: Keep specific colors based on priority\nBlue > Magenta > Green > Yellow\nThis would explain: Magenta kept over Green, Blue kept over Yellow\n\nTest image colors:\n- Red: (255, 57, 55) - index 2\n- Green: (0, 197, 67) - index 3\n\nApplying transformation rule...\nBased on the pattern: keep the color with higher priority\nIf priority is Blue > Magenta > Green > Red > Yellow\nThen between Red (2) and Green (3), Green should be kept\nBut let me try the numerical index rule first:\nRed=2, Green=3 -> keep Green (higher index)\nEstimated grid size: 45x45\n\nResulting grid:\n0 0 0 0 0 0 0 0 0 0 0 0 0 0 0 0 0 0 0 0 0 0 
…
olors: [0, 2, 7]\n  Output colors: [0, 3]\n  (0,0): 7 -> 3\n  (0,1): 7 -> 3\n  (1,0): 7 -> 3\n  (1,2): 2 -> 0\n  (2,0): 7 -> 3\n\nExample 3:\nInput:\n0 7 0\n10 7 10\n0 7 10\nOutput:\n3 3 0\n0 0 0\n0 0 0\nAnalysis:\n  Input colors: [0, 7, 10]\n  Output colors: [0, 3]\n  (0,0): 0 -> 3\n  (0,1): 7 -> 3\n  (1,0): 10 -> 0\n  (1,1): 7 -> 0\n  (1,2): 10 -> 0\n  (2,1): 7 -> 0\n  (2,2): 10 -> 0\n\n==================================================\nLooking for patterns:\n\nObservations:\n1. All examples are 3x3 grids\n2. Looking at transformations...\n\nColumn analysis:\n\nExample 1 columns:\n  Col 0: [0, 0, 7] -> [0, 0, 3]\n  Col 1: [0, 0, 7] -> [0, 8, 3]\n  Col 2: [7, 7, 7] -> [0, 0, 0]\n\nExample 2 columns:\n  Col 0: [7, 7, 7] -> [3, 3, 3]\n  Col 1: [7, 0, 0] -> [3, 0, 0]\n  Col 2: [0, 2, 0] -> [0, 0, 0]\n\nExample 3 columns:\n  Col 0: [0, 10, 0] -> [3, 0, 0]\n  Col 1: [7, 7, 7] -> [3, 0, 0]\n  Col 2: [0, 10, 10] -> [0, 0, 0]\n\nRule hypothesis testing:\nTesting refined rule:\n\nExample 1 test:\nPredicted: [[0, 0, 0], [0, 0, 0], [3, 3, 0]]\nActual:    [[0, 0, 0], [0, 8, 0], [3, 3, 0]]\nMatch: False\n\nExample 2 test:\nPredicted: [[3, 3, 0], [3, 0, 0], [3, 0, 0]]\nActual:    [[3, 3, 0], [3, 0, 0], [3, 0, 0]]\nMatch: True\n\nExample 3 test:\nPredicted: [[0, 3, 0], [0, 3, 0], [0, 3, 0]]\nActual:    [[3, 3, 0], [0, 0, 0], [0, 0, 0]]\nMatch: False\n\n==================================================\nApplying to test case:\nTest input:\n7 0 0\n7 0 0\n7 0 0\nPredicted output:\n3 0 0\n3 0 0\n3 0 0\n', type='bash_code_execution_result')
…
                output_grid[row][col] = 8
            
            # The pattern might be more complex, but this is a starting hypothesis
    
    return output_grid

refined_result = apply_refined_rule(test_grid)
print_grid(refined_result, ""Refined Transformation Result"")
```
```
BetaTextEditorCodeExecutionCreateResultBlock(is_file_update=False, type='text_editor_code_execution_create_result')
```
```
cd /tmp && python manual_grid_extract.py
```
```
BetaBashCodeExecutionResultBlock(content=[], return_code=0, stderr='', stdout='Test image dimensions: 782 x 722\nEstimated cell size: 60\nPosition (0, 0) -> RGB(0, 0, 0) -> Color 0\nPosition (0, 1) -> RGB(0, 0, 0) -> Color 0\nPosition (0, 2) -> RGB(0, 0, 0) -> Color 0\nPosition (1, 0) -> RGB(0, 0, 0) -> Color 0\nPosition (1, 1) -> RGB(0, 0, 0) -> Color 0\nPosition (1, 2) -> RGB(0, 0, 0) -> Color 0\nPosition (2, 0) -> RGB(0, 0, 0) -> Color 0\nPosition (2, 1) -> RGB(0, 0, 0) -> Color 0\nPosition (2, 2) -> RGB(249, 22, 179) -> Color 0\n\nTest Grid:\n0 0 0 0 0 0 0 0 0 0 0 0\n0 0 0 0 0 0 0 0 0 0 0 0\n0 0 0 0 0 0 0 0 0 0 0 0\n0 0 0 0 0 0 0 0 0 0 0 0\n0 0 0 0 0 0 0 0 0 0 0 0\n0 0 0 0 0 0 0 0 0 0 0 0\n0 0 0 0 0 0 0 0 0 0 0 0\n0 0 0 0 0 0 0 0 0 0 0 0\n0 0 0 0 0 0 0 0 0 0 0 0\n0 0 0 0 0 0 0 0 0 0 0 0\n0 0 0 0 0 0 0 0 0 0 0 0\n0 0 0 0 0 0 0 0 0 0 0 0\n\nAnalyzing the transformation pattern...\n\nTransformed Test Grid:\n0 0 0 
…
), np.uint8(0))\n(500, 500): RGB(np.uint8(0), np.uint8(197), np.uint8(67))\n\nAnalyzing test image structure...\nUnique colors in test image:\n  RGB(np.uint8(0), np.uint8(0), np.uint8(0)) - black - count: 449049\n  RGB(np.uint8(0), np.uint8(197), np.uint8(67)) - unknown - count: 73101\n  RGB(np.uint8(204), np.uint8(204), np.uint8(204)) - unknown - count: 18564\n  RGB(np.uint8(249), np.uint8(22), np.uint8(179)) - unknown - count: 20886\n  RGB(np.uint8(255), np.uint8(255), np.uint8(255)) - white - count: 3004\nGrid extraction parameters:\n  Start: (39, 36)\n  Cell size: 58 x 54\nCell (0, 0): RGB(0, 0, 0) -> 0\nCell (0, 1): RGB(0, 0, 0) -> 0\nCell (0, 2): RGB(0, 0, 0) -> 0\nCell (0, 3): RGB(0, 0, 0) -> 0\nCell (0, 4): RGB(0, 0, 0) -> 0\nCell (1, 0): RGB(0, 0, 0) -> 0\nCell (1, 1): RGB(0, 0, 0) -> 0\nCell (1, 2): RGB(0, 0, 0) -> 0\nCell (1, 3): RGB(0, 0, 0) -> 0\nCell (1, 4): RGB(0, 0, 0) -> 0\n\nTest Grid:\n0 0 0 0 0 0 0 0 0 0 0 0\n0 0 0 0 0 0 0 0 0 0 0 0\n0 0 0 0 0 0 0 0 0 0 0 0\n0 0 0 0 0 0 0 0 0 0 0 0\n0 0 0 0 0 0 0 0 0 0 0 0\n0 0 0 0 0 0 0 0 0 0 0 0\n0 0 0 0 0 0 0 0 0 0 0 0\n0 0 0 0 0 0 0 0 0 0 0 0\n0 0 0 0 0 0 0 0 0 0 0 0\n0 0 0 0 0 0 0 0 0 0 0 0\n0 0 0 0 0 0 0 0 0 0 0 0\n0 0 0 0 0 0 0 0 0 0 0 0\n', type='bash_code_execution_result')
```
```
import numpy as np
from PIL import Image
import os

def extract_actual_test_grid():
    """"""Extract the actual test grid with proper color detection""""""
    test_file = os.environ.get('INPUT_DIR', '.') + '/test_3.png'
    img = Image.open(test_file)
    img_array = np.array(img)
    
    height, width = img_array.shape[:2]
    print(f""Image size: {width} x {height}"")
    
    # From the color analysis, I know there are these colors:
    # RGB(0, 0, 0) - black
    # RGB(0, 197, 67) - green 
    # RGB(204, 204, 204) - gray/white
    # RGB(249, 22, 179) - magenta
    # RGB(255, 255, 255) - white
    
    # Let me sample more densely to find the non-black areas
    print(""\nScanning for colored regions..."")
    
    colored_positions = []
    for y in range(0, height, 10):
        for x in range(0, width, 10):
            pixel = img_array[y, x]
            r, g, b = pixel[:3]
            if not (r < 50 and g < 50 and b < 50):  # Not black
                colored_positions.append((x, y, r, g, b))
…
            break

# Also analyze the test image
print(f""\n\nTest image analysis:"")
test_grid = sample_grid_colors(test_img, (10, 10))
print(""Test grid sample (10x10):"")
for i, row in enumerate(test_grid[:5]):
    print(f""Row {i}: {row}"")
```
```
BetaTextEditorCodeExecutionCreateResultBlock(is_file_update=False, type='text_editor_code_execution_create_result')
```
```
cd /tmp && python extract_grids.py
```
```
BetaBashCodeExecutionResultBlock(content=[], return_code=0, stderr='', stdout='Training image shape: (585, 1024, 3)\nTest image shape: (602, 602, 3)\n\nAnalyzing specific colors found:\nRed (255, 57, 55) -> 2\nYellow (255, 215, 49) -> 4\nGray (204, 204, 204) -> 5\nBlack (0, 0, 0) -> 0\nWhite (255, 255, 255) -> -1\n\nAnalyzing training image structure...\n\nTrying to identify the grid structure manually...\nLeft half shape: (585, 512, 3)\nRight half shape: (585, 512, 3)\nGrid sections: (292, 512, 3), (293, 512, 3), (292, 512, 3), (293, 512, 3)\n\nSampling grid sections...\n\nleft_top:\n  Grid size (5, 12): 46/60 valid cells\n    Row 0: [0, 0, 2, 0, 0, 0, 0, 0, 0, 0, 0, 0]\n    Row 1: [0, 4, 2, 0, 0, 0,
…
    for i, row in enumerate(test_sample_grid):
        f.write(f""Row {i:2d}: {row}\n"")

print(""Visual inspection complete. Data saved to /tmp/visual_inspection_grids.txt"")
```
```
BetaTextEditorCodeExecutionCreateResultBlock(is_file_update=False, type='text_editor_code_execution_create_result')
```
```
cd /tmp && python visual_inspection.py
```
```
BetaBashCodeExecutionResultBlock(content=[], return_code=0, stderr='', stdout='Let me examine the images more systematically...\nTraining image shape: (585, 1024, 3)\nTest image shape: (602, 602, 3)\n\nSampling specific locations in training image:\n  Top-left corner (0, 0): RGB(243, 243, 243) -> Color 0\n  Quarter point (256, 146): RGB(0, 0, 0) -> Color 0\n  Top center (512, 146): RGB(255, 255, 255) -> Color 0\n  Three-quarter top (768, 146): RGB(0, 0, 0) -> Color 0\n  Left center (256, 292): RGB(0, 0, 0) -> Color 0\n  Center (512, 292): RGB(255, 255, 255) -> Color 0\n  Right center (768, 292): RGB(255, 255, 255) -> Color 0\n  Three-quarter left (256, 438): RGB(0, 0, 0) -> Color 0\n  Bottom center (512, 438): RGB(255, 255, 255) -> Color 0\n  Three-quarter right (768, 438): RGB(255, 255, 255) -> Color 0\n\nSystematic sampling of training image (20x20 grid):\nRow  0: [0, 0, 0, 0, 0, 0, 0, 0, 0, 0, 0, 0, 0, 0, 0, 0, 0, 0, 0, 0]\nRow  1: [0, 0, 2, 0, 0, 0, 0, 0, 0, 0, 0, 0, 2, 0, 0, 0, 0, 0, 0, 0]\nRow  2: [0, 0, 2, 0, 0, 0, 0, 0, 0, 0, 0, 0, 2, 0, 0, 0, 0, 0, 0, 0]\nRow  3: [0, 4, 2, 0, 0, 0, 0, 0, 0, 0, 0, 0, 2, 0, 0, 0, 0, 0, 0, 0]\nRow  4: [0, 0, 2, 0, 0, 0, 0, 0, 0, 0, 0, 0, 2, 0, 0, 
…
